================================================================================
hf_model PeftModelForFeatureExtraction(
  (base_model): LoraModel(
    (model): LlamaModel(
      (embed_tokens): Embedding(32000, 4096)
      (layers): ModuleList(
        (0-31): 32 x LlamaDecoderLayer(
          (self_attn): LlamaSdpaAttention(
            (q_proj): lora.Linear(
              (base_layer): Linear(in_features=4096, out_features=4096, bias=False)
              (lora_dropout): ModuleDict(
                (default): Dropout(p=0.1, inplace=False)
              )
              (lora_A): ModuleDict(
                (default): Linear(in_features=4096, out_features=8, bias=False)
              )
              (lora_B): ModuleDict(
                (default): Linear(in_features=8, out_features=4096, bias=False)
              )
              (lora_embedding_A): ParameterDict()
              (lora_embedding_B): ParameterDict()
              (lora_magnitude_vector): ModuleDict()
            )
            (k_proj): Linear(in_features=4096, out_features=4096, bias=False)
            (v_proj): lora.Linear(
              (base_layer): Linear(in_features=4096, out_features=4096, bias=False)
              (lora_dropout): ModuleDict(
                (default): Dropout(p=0.1, inplace=False)
              )
              (lora_A): ModuleDict(
                (default): Linear(in_features=4096, out_features=8, bias=False)
              )
              (lora_B): ModuleDict(
                (default): Linear(in_features=8, out_features=4096, bias=False)
              )
              (lora_embedding_A): ParameterDict()
              (lora_embedding_B): ParameterDict()
              (lora_magnitude_vector): ModuleDict()
            )
            (o_proj): lora.Linear(
              (base_layer): Linear(in_features=4096, out_features=4096, bias=False)
              (lora_dropout): ModuleDict(
                (default): Dropout(p=0.1, inplace=False)
              )
              (lora_A): ModuleDict(
                (default): Linear(in_features=4096, out_features=8, bias=False)
              )
              (lora_B): ModuleDict(
                (default): Linear(in_features=8, out_features=4096, bias=False)
              )
              (lora_embedding_A): ParameterDict()
              (lora_embedding_B): ParameterDict()
              (lora_magnitude_vector): ModuleDict()
            )
            (rotary_emb): LlamaRotaryEmbedding()
          )
          (mlp): LlamaMLP(
            (gate_proj): lora.Linear(
              (base_layer): Linear(in_features=4096, out_features=11008, bias=False)
              (lora_dropout): ModuleDict(
                (default): Dropout(p=0.1, inplace=False)
              )
              (lora_A): ModuleDict(
                (default): Linear(in_features=4096, out_features=8, bias=False)
              )
              (lora_B): ModuleDict(
                (default): Linear(in_features=8, out_features=11008, bias=False)
              )
              (lora_embedding_A): ParameterDict()
              (lora_embedding_B): ParameterDict()
              (lora_magnitude_vector): ModuleDict()
            )
            (up_proj): lora.Linear(
              (base_layer): Linear(in_features=4096, out_features=11008, bias=False)
              (lora_dropout): ModuleDict(
                (default): Dropout(p=0.1, inplace=False)
              )
              (lora_A): ModuleDict(
                (default): Linear(in_features=4096, out_features=8, bias=False)
              )
              (lora_B): ModuleDict(
                (default): Linear(in_features=8, out_features=11008, bias=False)
              )
              (lora_embedding_A): ParameterDict()
              (lora_embedding_B): ParameterDict()
              (lora_magnitude_vector): ModuleDict()
            )
            (down_proj): lora.Linear(
              (base_layer): Linear(in_features=11008, out_features=4096, bias=False)
              (lora_dropout): ModuleDict(
                (default): Dropout(p=0.1, inplace=False)
              )
              (lora_A): ModuleDict(
                (default): Linear(in_features=11008, out_features=8, bias=False)
              )
              (lora_B): ModuleDict(
                (default): Linear(in_features=8, out_features=4096, bias=False)
              )
              (lora_embedding_A): ParameterDict()
              (lora_embedding_B): ParameterDict()
              (lora_magnitude_vector): ModuleDict()
            )
            (act_fn): SiLU()
          )
          (input_layernorm): LlamaRMSNorm((4096,), eps=1e-05)
          (post_attention_layernorm): LlamaRMSNorm((4096,), eps=1e-05)
…
